model.onnx (onnx, 204019 bytes, 4 tensors)

fc1.weight f4 [64, 784]
0.024949832 -0.013496203 -0.016968958 -0.014191981 -0.011381465 0.018337077 0.014779683 0.024292959
0.017518658 -0.033268392 -0.0016299189 -0.0022963756 -0.02668675 0.014825903 0.014750404 0.00092071726
-0.018514222 -0.017304996 -0.022303991 0.028385267 0.024769405 -0.002341279 0.028503718 -0.031063013
-0.01073719 0.02063269 -0.011957029 0.03326224 -0.03327476 -0.022463404 -0.008459836 -0.02703009
0.030090503 0.010898778 -0.0540678 -0.020964311 -0.055684548 -0.03960053 -0.1274147 -0.14522365
-0.099554665 -0.14916351 -0.19510742 -0.17370792 -0.12908353 -0.13856746 -0.13610569 -0.06633413
-0.05923827 0.008444522 -0.10851656 -0.08357485 -0.027012404 0.009480933 0.01783449 -0.024692757
-0.012058314 0.009938981 -0.014614591 -0.026942471 -0.14303386 -0.07442212 -0.021842377 -0.09714397
0.008955649 -0.109061554 -0.19650376 -0.35343808 -0.46505636 -0.44372687 -0.40913865 -0.29532015
-0.090578035 -0.014455624 0.013501021 0.017805245 0.06746439 0.022699272 -0.052023314 0.03779155
0.046721403 0.09202078 0.0353495 -0.010765353 0.032546863 0.02791576 0.040804643 0.17277385
0.123079985 0.09960246 0.1175041 0.059028145 0.08709693 -0.001326664 -0.021720633 -0.10076307
-0.23234285 -0.41616973 -0.31336072 -0.072290726 -0.11965488 -0.07715219 0.0245486 -0.06001419
0.05353319 0.09380446 0.1537178 0.07001397 0.047823302 0.07538513 0.030044029 -0.018650567
-0.026019122 -0.027752457 0.08248041 0.085815676 -0.18961 -0.029332943 0.12815928 0.19285299
0.07647998 -0.008512886 0.03679334 0.124447234 -0.027165843 -0.03940316 0.028731182 0.105679385
0.107423514 0.10663076 0.23702401 0.14031135 0.12568402 0.16496372 0.1774812 0.1549358
0.2584403 0.3012531 -0.056335628 -0.11168527 0.029682275 -0.021259757 0.0009519799 0.014058368
-0.13303813 -0.06053511 0.07477568 0.18805107 0.12364718 0.09572885 0.110531606 0.1232443
0.09017187 -0.0065028835 -0.09380674 -0.13134879 0.048007097 -0.0062343352 -0.026265372 0.01388008
0.035304163 0.08753808 0.10690127 0.03764738 0.054661617 0.1963928 -0.034555342 -0.054935828
-0.01164052 0.122065894 0.21389991 -0.027919892 -0.004878408 0.24038854 0.09895952 0.10578156
0.11835942 0.16733442 0.2322312 0.13366646 0.115534976 0.007902871 -0.13461472 -0.27720994
-0.25398466 -0.14984287 -0.08594009 0.037697434 0.05854626 -0.012153143 0.10758478 0.052974142
0.13605258 0.23368654 0.1493086 -0.028949091 -0.013407268 0.11726321 0.20524009 0.10311001
0.025798557 0.22416349 0.10356275 0.15297718 0.19505395 0.18259968 0.15249883 0.1052575
0.082185954 -0.016802605 -0.15444191 -0.3714549 -0.3244106 -0.102419235 -0.052851964 0.09325783
0.02451021 0.042380936 0.134436 0.06453545 0.18400379 0.18992831 0.22407997 -0.03685479
-0.11383729 -0.053531766 0.26602834 0.056228068 0.10788217 0.110513635 0.041630022 0.10795558
0.037706498 0.13563024 0.05376364 0.22711031 0.20054552 0.056100022 -0.05754643 -0.20779632
-0.21160607 -0.06744205 0.16464594 0.11080449 0.16996013 0.09624949 0.18168737 0.15459797
0.33421013 0.20683984 0.17297044 0.15545982 0.041564576 0.084060416 0.23018835 0.058408726
00000000: 9763 cc3c 2e1f 5dbc 7c02 8bbc 7c85 68bc
00000010: 5379 3abc a337 963c 7c26 723c 0702 c73c
00000020: 4a83 8f3c 7044 08bd 01a3 d5ba ca7e 16bb
00000030: 2c9e dabc 58e8 723c aeab 713c 4a5c 713a
00000040: 23ab 97bc 35c3 8dbc dcb6 b6bc 3888 e83c
00000050: 35e9 ca3c 2570 19bb a180 e93c dc77 febc
00000060: 0aeb 2fbc e305 a93c 6ae7 43bc fd3d 083d
00000070: 1d4b 08bd 2c05 b8bc 209b 0abc 356e ddbc
00000080: 5c80 f63c ca90 323c 3376 5dbd 59bd abbc
00000090: 7b15 64bd 2a34 22bd 0079 02be 82b5 14be
000000a0: 51e3 cbbd 52be 18be 3dca 47be 7de0 31be
000000b0: 792e 04be a1e4 0dbe 4a5f 0bbe 30da 87bd
000000c0: d4a3 72bd e45a 0a3c ee3d debd 4a29 abbd
000000d0: 1e49 ddbc ea55 1b3c a319 923c 7748 cabc
000000e0: 3c90 45bc 1cd7 223c 0a72 6fbc 75b6 dcbc
000000f0: 7877 12be a06a 98bd c9ee b2bc 6bf3 c6bd
00000100: b7ba 123c aa5b dfbd 4838 49be d6f5 b4be
00000110: de1b eebe 2b30 e3be 9f7a d1be 3434 97be
00000120: fa80 b9bd 48d7 6cbc 6333 5d3c 4edc 913c
00000130: c52a 8a3d d3f3 b93c 6616 55bd 50cb 1a3d
00000140: f15e 3f3d 6475 bc3d a3ca 103d 2a61 30bc
00000150: dc4f 053d 98af e43c c522 273d a1eb 303e
00000160: 5c11 fc3d 60fc cb3d fda5 f03d 7fc7 713d
00000170: e05f b23d 75e3 adba 78ef b1bc de5c cebd
00000180: 49eb 6dbe 3314 d5be d170 a0be 290d 94bd
00000190: 9e0d f5bd f801 9ebd 251a c93c 70d1 75bd
000001a0: 9e45 5b3d 8d1c c03d 3368 1d3e 7c63 8f3d
000001b0: 5ee2 433d 8563 9a3d e51e f63c 13c9 98bc
000001c0: 0e26 d5bc 1f59 e3bc 7deb a83d 21c0 af3d
000001d0: 2029 42be a44b f0bc 303c 033e 417b 453e
000001e0: 89a1 9c3d a279 0bbc 9db4 163d 31de fe3d
000001f0: e78a debc 3565 21bd a85d eb3c 6f6e d83d
00000200: dc00 dc3d 3a61 da3d 6cb6 723e c7ad 0f3e
00000210: 50b3 003e 40ec 283e a2bd 353e 7ea7 1e3e
00000220: 4952 843e d93d 9a3e 30c0 66bd 3fbb e4bd
00000230: 3e28 f33c f128 aebc 4a8e 793a 1255 663c
00000240: 263b 08be aaf3 77bd fe23 993d 7690 403e
00000250: bc3a fd3d 7d0d c43d 655e e23d 8267 fc3d
00000260: 08ac b83d 2416 d5bb c01d c0bd 4c80 06be
00000270: 17a3 443d 6549 ccbb 7a2a d7bc 4669 633c
00000280: 199b 103d 2a47 b33d 0eef da3d 2434 1a3d
00000290: dce4 5f3d 321b 493e e789 0dbd 6404 61bd
000002a0: e1b7 3ebc affd f93d 9408 5b3e 42b8 e4bc
000002b0: 0ddb 9fbb 6a28 763e 4aab ca3d 01a4 d83d
000002c0: 6c66 f23d b759 2b3e 04ce 6d3e dcdf 083e
000002d0: 9a9d ec3d 0b7b 013c 71d8 09be 76ee 8dbe
000002e0: 470a 82be 6970 19be 5c01 b0bd a068 1a3d
000002f0: 34ce 6f3d fa1d 47bc 6955 dc3d 6afb 583d
00000300: 5e51 0b3e 864b 6f3e 5be4 183e a526 edbc
00000310: 28aa 5bbc b227 f03d 752a 523e 572b d33d
00000320: 7f57 d33c 1d8b 653e b518 d43d 0da6 1c3e
00000330: 39bc 473e 69fb 3a3e a728 1c3e 3f91 d73d
00000340: 1c51 a83d 9ea5 89bc 0526 1ebe 562f bebe
00000350: 2519 a6be 2dc1 d1bd 4d7b 58bd f6fd be3d
00000360: a3c9 c83c a297 2d3d 97a9 093e 292b 843d
00000370: 7d6b 3c3e 917c 423e 3875 653e 0cf5 16bd
00000380: 8623 e9bd 2044 5bbd de34 883e 674f 663d
00000390: 54f1 dc3d f954 e23d 3e84 2a3d d117 dd3d
000003a0: 2172 1a3d a7e2 0a3e 4337 5c3d 9b8f 683e
000003b0: ce5b 4d3e 23c9 653d ceb5 6bbd 8fc8 54be
000003c0: 43af 58be 0f1f 8abd f298 283e 77ed e23d
000003d0: 070a 2e3e 741e c53d 410c 3a3e ee4e 1e3e
000003e0: 971d ab3e d3cd 533e 2a1f 313e dc30 1f3e
000003f0: 9e3f 2a3d de27 ac3d 7fb6 6b3e fd3d 6f3d

fc1.bias f4 [64]
0.08152553 0.0054104836 -0.12982209 -0.029023627 0.13153368 -0.04132651 0.28496134 -0.1150584
-0.04676888 0.06751524 -0.048207622 0.25205362 -0.013394979 0.10438049 0.19402637 -0.1508727
-0.0881371 0.06601231 -0.108786315 0.017130755 -0.09325591 0.25533888 -0.043566838 0.0957472
-0.061165363 0.035107225 0.10718313 -0.17401469 0.0754654 0.11482881 0.09717163 0.2374265
0.13391705 0.13299602 0.09593926 0.065063365 -0.07426484 0.24803539 0.2249466 -0.1098493
-0.10925645 -0.10891099 0.18736573 -0.06504562 0.40008578 0.21269879 -0.096950956 0.20663546
0.0210456 -0.015800424 0.2257283 -0.043796822 -0.0010020499 0.15293817 0.045320377 -0.10976199
-0.15436326 0.15726025 -0.012628382 0.15502696 -0.02376054 -0.049000006 0.23841137 -0.14663184
00000000: dbf6 a63d 6d4a b13b 15f0 04be f5c2 edbc
00000010: c4b0 063e fd45 29bd 74e6 913e bda3 ebbd
00000020: ba90 3fbd 6e45 8a3d 5b75 45bd 2c0d 813e
00000030: 9d76 5bbc 70c5 d53d d9ae 463e 607e 1abe
00000040: 3981 b4bd 7631 873d 5ccb debd cc55 8c3c
00000050: f4fc bebd c7bb 823e 2473 32bd 1c17 c43d
00000060: 8888 7abd 98cc 0f3d d482 db3d e830 32be
00000070: 9b8d 9a3d 5e2b eb3d eb01 c73d ef1f 733e
00000080: 8d21 093e 1c30 083e ce7b c43d f13f 853d
00000090: 2a18 98bd fdfc 7d3e 6758 663e abf8 e0bd
000000a0: d8c1 dfbd ba0c dfbd cddc 3f3e a336 85bd
000000b0: 0bd8 cc3e b6cd 593e 398e c6bd 3f98 533e
000000c0: d267 ac3c e46f 81bc 5225 673e 4c64 33bd
000000d0: 3757 83ba d39b 1c3e dca1 393d e5ca e0bd
000000e0: 6711 1ebe d508 213e 46e7 4ebc 63bf 1e3e
000000f0: 77a5 c2bc 3bb4 48bd 1c22 743e a826 16be

fc2.weight f4 [10, 64]
-0.48262522 0.18793677 -0.38377556 0.1483049 -0.14501472 -0.020568062 -0.13327707 -0.037994046
0.19162613 -0.19342913 -0.0579539 -0.004052357 -0.13425572 -0.4387703 -0.6298849 -0.17900221
0.16791482 0.2370043 -0.3965259 0.3422517 0.25740957 -0.43948773 0.19029057 0.17467952
-0.054771844 0.17847905 -0.27302605 0.188635 -0.10372554 -0.34771642 0.3429961 -0.48624974
0.11689391 -0.57063514 -0.8051343 -0.05883622 -0.5858421 0.19391294 0.048381753 -0.06868419
0.115102574 0.031588726 -0.037547875 0.32128596 -0.08516027 -0.118249714 -0.05970264 -0.07377261
-0.48018417 0.06974959 0.1761187 0.06395589 0.19018088 -0.38657954 -0.22652481 0.13013639
0.19497715 -0.035487726 0.11701371 0.4748124 -0.1339794 -0.21309863 -0.34120962 0.121186025
0.06179618 -0.07865588 0.25420544 -0.7646874 0.13120836 0.0390326 0.1430909 -0.088310175
0.25355875 -0.17324264 -0.24300316 0.44527015 0.046584256 -0.42266563 -0.3299654 -0.18914089
-0.12696174 -0.40170714 0.1906742 -0.14885157 -0.22165968 0.6971004 -0.55368006 -0.4017504
0.048764817 0.15859759 -0.16757526 -0.3867395 0.10879114 -0.12036086 -0.13579212 0.25609517
0.4251581 0.10132823 0.36043003 -0.10223249 0.26756436 0.4195907 0.15304475 0.36803576
-0.053176917 -0.25085747 -0.5466095 -0.35028824 -0.23455878 -0.10517784 -0.02808526 -0.0018106381
0.19432235 -0.082366236 0.16841364 -0.48123142 0.01771327 -0.19626702 0.07378191 0.40999815
-0.19399102 -0.5966218 0.12511332 0.47737643 0.21097785 -0.34629157 0.06310094 -0.14801134
0.23094672 0.11112364 0.2265489 -0.06883129 0.10483895 -0.015360335 -0.98330015 0.33963493
0.21950208 -0.34544337 0.008181114 0.26317275 -0.10071072 -0.41911268 0.28867042 -0.115584254
0.18082008 -0.14240748 0.32940176 -0.21528324 -0.09982121 -0.23693416 -0.1604478 -0.090290055
-0.11186696 0.041200623 -0.1530554 0.21728152 0.2577546 -0.46349066 0.35638934 -0.072566554
0.078461714 -0.013571138 -0.7521662 0.071435876 0.16126889 -0.21594825 -0.62545896 -0.115821436
-0.044682812 -0.04766134 -0.28874797 0.16178362 0.28702387 0.21252741 -0.30469668 0.27468345
0.1688042 0.49235225 -0.04059487 0.15048058 -0.02283571 -0.35468647 0.2692643 0.15665507
-0.02814929 -0.24386954 0.14635018 0.2022321 -0.20785038 0.02698376 -0.013413955 0.1350773
0.14090131 0.1663133 0.06702358 0.2677463 -0.24650754 0.05803015 -0.07565133 0.054531887
-0.18397582 0.19659859 0.040872324 -0.32782304 0.049274575 0.121668525 0.11103408 -0.021229258
0.048468098 -0.23040633 0.31344834 -0.27838802 -0.009188143 -0.16027041 0.10874634 0.056170616
-0.07835388 -0.0765195 -0.05253516 0.19122937 -0.100988664 0.12304588 0.3306211 -0.049395397
-0.42764816 0.14280719 0.3791951 -0.16287765 0.30629724 -0.13349436 -0.31558037 0.5390756
0.20663048 0.069257155 -0.52437323 -0.36428714 -0.1467537 -0.3739841 0.06267754 -0.77784926
0.19513713 0.345773 -0.38395116 0.07576951 0.09723163 0.08845625 -0.0048425775 0.19220644
-0.23151289 -0.16123623 0.16141416 -0.79342514 -0.06834566 0.080171615 -0.4930413 0.30455473
00000000: a71a f7be 7f72 403e 3b7e c4be 3ddd 173e
00000010: bd7e 14be 5a7e a8bc c979 08be a59f 1bbd
00000020: a439 443e 4912 46be 1261 6dbd a2c9 84bb
00000030: 557a 09be 80a6 e0be 2340 21bf 5b4c 37be
00000040: ddf1 2b3e 41b1 723e 7105 cbbe 9d3b af3e
00000050: 30cb 833e 8904 e1be 88db 423e 30df 323e
00000060: 7158 60bd 36c3 363e 12ca 8bbe 8929 413e
00000070: 0e6e d4bd e307 b2be 2f9d af3e baf5 f8be
00000080: 1366 ef3d 2515 12bf 481d 4ebf 40fe 70bd
00000090: bff9 15bf 1d91 463e f22b 463d 4caa 8cbd
000000a0: e6ba eb3d 2e63 013d cdcb 19bd 987f a43e
000000b0: 8268 aebd e82c f2bd c18a 74bd 1816 97bd
000000c0: b3da f5be dfd8 8e3d 7658 343e 4efb 823d
000000d0: c7be 423e c1ed c5be 1ff6 67be 7942 053e
000000e0: 17a8 473e 945b 11bd e2a4 ef3d 9c1a f33e
000000f0: e531 09be 8736 5abe 07b3 aebe 6130 f83d
00000100: fe1d 7d3d 5616 a1bd 3727 823e 8ec2 43bf
00000110: 7c5b 063e a6e0 1f3d 6c86 123e f7db b4bd
00000120: 74d2 813e 8566 31be d2d5 78be 73fa e33e
00000130: 22cf 3e3d a167 d8be 3af1 a8be 26ae 41be
00000140: 4202 02be 8fac cdbe 1940 433e 8c6c 18be
00000150: c1fa 62be 2c75 323f fabd 0dbf 3ab2 cdbe
00000160: 9ebd 473d 6867 223e d998 2bbe b802 c6be
00000170: e4cd de3d c17f f6bd 170d 0bbe e81e 833e
00000180: 53ae d93e 2d85 cf3d 498a b83e 455f d1bd
00000190: 32fe 883e 98d4 d63e c3b7 1c3e 2f6f bc3e
000001a0: 0ad0 59bd 6470 80be 9aee 0bbf fb58 b3be
000001b0: 2d30 70be 7b67 d7bd 0f13 e6bc ef52 edba
000001c0: 70fc 463e a1af a8bd a074 2c3e f763 f6be
000001d0: 6b1b 913c 39fa 48be f81a 973d 47eb d13e
000001e0: 95a5 46be 35bc 18bf b51d 003e af6a f43e
000001f0: 940a 583e 214d b1be 113b 813d 4990 17be
00000200: 4c7d 6c3e ca94 e33d 6ffc 673e 6bf7 8cbd
00000210: ceb5 d63d eaa9 7bbc 8fb9 7bbf a1e4 ad3e
00000220: 27c5 603e f4dd b0be 140a 063c 94be 863e
00000230: 6c41 cebd f095 d6be 9ccc 933e 70b7 ecbd
00000240: e628 393e 44d3 11be 59a7 a83e 3673 5cbe
00000250: 106f ccbd de9e 72be 6e4c 24be fee9 b8bd
00000260: 811a e5bd fcc1 283d 8eba 1cbe 0c7f 5e3e
00000270: 69f8 833e a64e edbe aa78 b63e c69d 94bd
00000280: 89b0 a03d 7a59 5ebc f78d 40bf f94c 923d
00000290: ac23 253e 8a21 5dbe 141e 20bf ca33 edbd
000002a0: 5305 37bd 8a38 43bd c6d6 93be 9baa 253e
000002b0: cbf4 923e c9a0 593e 3401 9cbe 4fa3 8c3e
000002c0: 02db 2c3e 9815 fc3e ce46 26bd 9517 1a3e
000002d0: f411 bbbc 7799 b5be 03dd 893e 306a 203e
000002e0: 5799 e6bc f0b8 79be d2dc 153e ee15 4f3e
000002f0: bbd6 54be 0c0d dd3c 35c6 5bbc b451 0a3e
00000300: 6f48 103e 094e 2a3e a943 893d 0b16 893e
00000310: 796c 7cbe 06b1 6d3d 16ef 9abd d45c 5f3d
00000320: 2864 3cbe 2451 493e bd69 273d 6cd8 a7be
00000330: 23d4 493d 592d f93d d665 e33d fbe8 adbc
00000340: 7c86 463d a3ef 6bbe 4d7c a03e e088 8ebe
00000350: dd89 16bc ed1d 24be 67b6 de3d 2913 663d
00000360: 0078 a0bd 41b6 9cbd 1c2f 57bd a2d1 433e
00000370: 25d3 cebd 7aff fb3d 2b47 a93e d452 4abd
00000380: b3f4 dabe 0c3c 123e dc25 c23e 66c9 26be
00000390: fed2 9c3e bfb2 08be c093 a1be dc00 0a3f
000003a0: f196 533e b2d6 8d3d 533d 06bf d883 babe
000003b0: 9a46 16be d87a bfbe 155d 803d 2121 47bf
000003c0: 07d2 473e 2909 b13e 3f95 c4be 0b2d 9b3d
000003d0: 6021 c73d 8d28 b53d 7cae 9ebb c4d1 443e
000003e0: b711 6dbe 1c1b 25be c149 253e e91d 4bbf
000003f0: cff8 8bbd 0431 a43d e96f fcbe 99ee 9b3e

fc2.bias f4 [10]
-0.24168167 0.08259913 -0.044828404 -0.2506299 0.07908302 0.18103734 -0.0018808681 0.052501354
0.1363934 -0.017888762
00000000: 667b 77be bc29 a93d fd9d 37bd 9052 80be
00000010: 47f6 a13d da61 393e 7687 f6ba a90b 573d
00000020: b6aa 0b3e 748b 92bc
