model.tflite (tflite, 205496 bytes, 4 tensors)

arith.constant f4 [10, 64]
000000 65 0c 13 3b 4b 1c 96 be f8 44 a7 3b 50 09 0e bf
       0.0022437808 -0.2931846 0.0051046573 -0.5548296
000010 84 2f c0 be 6a e1 30 3e a6 49 d9 3e 95 0a 87 3e
       -0.37536252 0.17273489 0.42439002 0.2637526
000020 72 64 4e 3d 19 0f dd be 60 48 c8 be e0 ab 9f 3e
       0.05038876 -0.4317558 -0.39117718 0.31185818
000030 ad 60 96 be 6b 91 1d bf be 29 e1 3d 3d 60 d4 be
       -0.29370633 -0.61550015 0.1099429 -0.41479674
000040 16 81 c5 3e d6 69 df 3e c8 c2 a2 be b8 4d 02 3d
       0.38575047 0.43635434 -0.3178923 0.0318124
000050 4a 2e 23 3d 1a dd 80 bf 88 d8 2b 3e 96 22 b3 3d
       0.039839067 -1.0067475 0.16781819 0.08746831
000060 83 da c7 bc 86 3a a2 be 41 f1 0a 3e 5d 7e 42 bf
       -0.024396187 -0.31685275 0.13568594 -0.75974065
000070 10 a9 11 bf b9 b4 09 3e 20 84 3c 3e ae 2d 53 be
       -0.56898594 0.13447846 0.18409777 -0.20622894
000080 70 02 13 be 94 06 8c 3e bd 23 29 be f3 e2 f2 3e
       -0.14356399 0.2734877 -0.1651754 0.47438774
000090 a6 86 c1 3e 58 6f 21 bf c4 53 b0 bc 79 9d 02 bf
       0.3779804 -0.6306052 -0.021524318 -0.51021534
0000a0 fe a7 d3 be aa 0e ab bc 13 dd f4 3d 6f a0 08 be
       -0.41339105 -0.020881016 0.11956229 -0.1334245
0000b0 31 98 d7 be d7 e1 57 be 1b 1d 0c bf 97 a5 de 3e
       -0.421083 -0.21082245 -0.5473191 0.4348571
0000c0 06 af 12 bf e8 fd 84 3e 35 1c 9e bd 80 fb 1e 3e
       -0.57298315 0.25974965 -0.07720224 0.15525627
0000d0 f5 9d ce be 78 4c 03 3e b2 af 57 be 5c 4b 15 bf
       -0.40354887 0.1282214 -0.21063116 -0.58318114
0000e0 f5 4d 85 be 0b cf 22 3e 41 5d c2 3e 19 b6 1d bf
       -0.2603604 0.15899293 0.37961772 -0.61605984
0000f0 9d 79 53 3d c5 d9 3f bf b2 72 88 bd f9 ba 80 3e
       0.05162965 -0.74941665 -0.066625014 0.2514265
000100 a6 97 8c be a9 95 c0 3e 26 c4 51 bc 67 8a 0f bf
       -0.2745945 0.37614182 -0.012803113 -0.5607056
000110 38 8a 98 be 09 5e d2 3e b6 85 c6 bd 5b 53 88 3e
       -0.29792953 0.41087368 -0.09693472 0.26626095
000120 6e a5 49 bf e1 95 2d 3e d0 e1 59 3e 97 63 e2 be
       -0.7876805 0.16951706 0.21277547 -0.44216606
000130 a8 27 48 bc 11 94 8c bd 06 fd 14 3c e9 75 89 3d
       -0.012216486 -0.06864179 0.009093529 0.06711943
000140 1f 5a 34 3e 6f 37 46 be 73 7e 3d 3e 3e bf c6 be
       0.17612503 -0.19357084 0.18505268 -0.3881778
000150 56 73 e3 3e 3d dc 8c 3e 26 75 28 bf 3b b5 8f be
       0.44423932 0.27511778 -0.65803754 -0.28067955
000160 60 7d 4d be 30 24 3f 3d a3 4f b4 be bd fa 2b 3d
       -0.20067358 0.04666537 -0.35217008 0.04198717
000170 d3 d1 14 3f 73 75 29 3e 2c 05 cb be eb fa 15 bf
       0.58132666 0.1654871 -0.39652383 -0.58585995
000180 2a ed 6d 3d 60 dd 4a bc 2b 53 9b 3e 28 b6 b9 3e
       0.058087505 -0.0123818815 0.3033689 0.36271787
000190 bb 97 97 3e e9 2c a5 3e b9 7c c0 be 8e 82 7a be
       0.2960795 0.32260826 -0.37595156 -0.24463865
0001a0 4e 66 eb 3e e6 7a ab 3e 96 e8 a3 bd 5c f6 84 3e
       0.4597649 0.33492202 -0.080033466 0.25969207
0001b0 45 16 4f 3e 67 c3 03 be a9 a9 b5 3e f2 b0 c3 3d
       0.20223339 -0.12867509 0.35481003 0.09555234
0001c0 45 72 5f be 08 68 96 be 4e 24 af be 9d 26 fc 3c
       -0.21820934 -0.29376245 -0.34207386 0.030780131
0001d0 8e bc f0 3d 84 b4 53 3f 54 e1 00 3e 76 ac e3 bd
       0.11754714 0.8269732 0.12585956 -0.11116879
0001e0 68 e3 bd be be 47 ef be 7d 24 dc 3e 8c 6a ee bd
       -0.3708756 -0.46734422 0.42996588 -0.11641416
0001f0 4f cb d3 be 39 59 67 be 07 49 22 be b2 7a 7c bd
       -0.4136605 -0.2259263 -0.1584817 -0.06164045
000200 c9 d3 20 be 66 be f5 3d f2 2b d2 be c3 91 36 3e
       -0.1570579 0.11999206 -0.41049153 0.17829041
000210 de f0 97 3e 1c ca 9a 3e f9 49 58 3e 76 1f c2 3e
       0.29675955 0.30232322 0.21121968 0.37914628
000220 3b b3 f6 bd 41 15 59 3e 0b 23 33 be c6 e7 22 3e
       -0.12045904 0.21199514 -0.17493837 0.15908727
000230 cd 2e 63 be 56 2b 82 3e 9d ec 8e be 6a 40 db be
       -0.22185822 0.25423688 -0.27914897 -0.42822582
000240 6e ff df 3d d8 4a 67 be c3 ee ac 3e 2a b3 f6 3d
       0.10937391 -0.22587144 0.3377591 0.120458916
000250 ff c3 57 bf 29 81 fe be 9d e0 88 be cc 5a a8 bd
       -0.8428344 -0.49707916 -0.26733866 -0.08220443
000260 82 88 36 bf cd ba 31 bf aa 0b 4d 3d ed 6f da bc
       -0.71302044 -0.6942566 0.05005995 -0.026664698
000270 3c d6 25 3f bd 04 3d 3e 7c 42 c4 bd e4 90 d2 be
       0.6478002 0.18458839 -0.095829934 -0.41126168
000280 63 e0 98 be 17 4c 88 3e 5b b0 52 bb c2 0a f2 3d
       -0.29858693 0.26620552 -0.0032148573 0.11818458
000290 1e e1 c8 3e 42 c6 30 bb 1e dd 54 bb 89 47 c2 be
       0.3923425 -0.002697364 -0.003248043 -0.37945202
0002a0 c6 38 0d be 73 98 b3 bd cf f1 83 bf bd 9b 8b 3e
       -0.13791189 -0.08769312 -1.0308169 0.27267256
0002b0 06 6f 01 3e 45 91 57 3e 13 5a 48 3f ce c0 1b bf
       0.12640008 0.2105151 0.7826244 -0.6084107
0002c0 b0 3a 83 3e 0c 2a 6f 3d 67 a9 cf be e8 a6 96 3e
       0.25630713 0.05838971 -0.4055893 0.29424214
0002d0 70 2f 5c 3e ee 4a 09 bf f9 06 12 3f 00 75 49 be
       0.21502471 -0.5362996 0.5704189 -0.19673538
0002e0 03 1e b4 3d 69 76 fe 3d 9d 54 81 be 22 f3 ac 3d
       0.08794787 0.12424929 -0.25259867 0.084448114
0002f0 96 0a 10 3f ec 33 54 bd d6 a2 29 3d 51 fd 18 3e
       0.5626615 -0.05180733 0.041415058 0.14940383
000300 ac d1 60 3e 44 10 09 3f a5 e5 42 3e 98 0a 0c 3e
       0.21954983 0.53540444 0.19032915 0.13675916
000310 a3 97 05 3e 30 dd 9e 3e 07 90 71 be 10 1f cc bd
       0.13046126 0.31028128 -0.23590098 -0.09966862
000320 d1 1d 95 be 99 06 09 be 2d 9c 19 bf d8 2a 99 3e
       -0.2912431 -0.13381423 -0.6000393 0.299155
000330 3b c9 10 3e dc 78 fa 3d ce 48 87 3e 83 d1 5f 3e
       0.14139263 0.12230083 0.26422733 0.21857266
000340 cd d8 70 bd 6d 83 55 bf 7e 83 17 bf 23 cb 9d bd
       -0.058800507 -0.83403665 -0.59185016 -0.07704761
000350 f5 b0 10 bf 84 c2 6f 3e e2 87 ae 3e 63 10 83 3e
       -0.56520015 0.23414046 0.34088045 0.2559844
000360 ef a2 20 be cc d8 4a bf 2a 5a 6d 3e 0a 6c 4b 3d
       -0.15687154 -0.79237056 0.23178926 0.04966358
000370 c5 21 10 bf 12 b3 5b bd 96 ab 7c bd e4 b0 0f bf
       -0.5630153 -0.05363757 -0.061687075 -0.5612929
000380 c8 00 42 bf 30 c9 88 bc df 17 b8 3d 4e f4 51 3d
       -0.7578244 -0.016697496 0.08988928 0.051258378
000390 71 ba 04 3d 9e f9 b3 bd 34 66 b7 3c 1c d2 2c be
       0.032404367 -0.08787845 0.022387601 -0.16877025
0003a0 85 ba 2a bf 45 8d 83 be bb 21 92 3e 2f 86 3e bd
       -0.66690856 -0.25693718 0.2854136 -0.046514686
0003b0 90 2c 19 3e 02 a0 a7 bd 41 c3 16 3e d3 00 fb 3d
       0.14958405 -0.08184816 0.14722921 0.122560166
0003c0 f8 17 f9 bd d5 b7 96 3c 82 5d 72 be 45 c1 e6 3d
       -0.12162775 0.018398205 -0.23668483 0.11267332
0003d0 fc 23 a5 3d 7e 57 c0 be 17 a9 bf 3d ab 3c 5b 3e
       0.08063504 -0.3756675 0.09358423 0.21409862
0003e0 8c b4 f0 3e 98 43 b6 be f1 0f b0 be 4a 36 14 3f
       0.47012746 -0.35598445 -0.34387162 0.5789534
0003f0 c0 c7 00 bf f1 38 ca 3e 9b 13 51 3e 14 8c 82 3e
       -0.50304794 0.39496568 0.20417635 0.25497496

arith.constant1 f4 [64, 784]
000000 6a 7e 74 3d d3 81 9f 3d e3 30 a7 3d e2 7f 6d 3d
       0.05969087 0.07788434 0.08163621 0.057983287
000010 be e1 84 bd ce 33 9b bd 56 05 d4 bc cc 3a ab bd
       -0.064883694 -0.0757824 -0.02588145 -0.08360824
000020 00 70 ac b9 b0 a3 2d bc f5 01 8e 3d 3b 3a 35 bd
       -0.00032889843 -0.010598108 0.06933967 -0.044244986
000030 48 81 b9 3c 0e 06 81 bd 77 68 9c bd 46 cf 4e bd
       0.022644654 -0.06299983 -0.076371126 -0.05049064
000040 00 70 40 39 7a 1f 51 3d db b5 a9 3d 31 9f a8 3d
       0.0001835227 0.05105541 0.08286639 0.08233488
000050 60 26 b8 bb e0 21 0a 3d ad 1f 9c bd f8 e6 f9 3c
       -0.005619809 0.033723712 -0.07623229 0.030505642
000060 07 77 86 3d 0d 47 9f 3d 85 f1 ab 3d 40 37 28 3b
       0.065656714 0.07777224 0.083956756 0.0025667697
000070 33 cf 8e bd a1 45 25 bd f0 81 df 3c 87 59 2c bd
       -0.06973114 -0.040349606 0.027283639 -0.042077567
000080 66 3a a0 bd bb 69 83 3d 7c 97 15 3e 15 01 c2 3d
       -0.078236386 0.06416651 0.14608568 0.09472863
000090 11 86 06 3d 4c 4b 57 3d 9c 11 10 3e 3d 5e 85 3c
       0.0328427 0.052562043 0.14069217 0.016280288
0000a0 b8 5f 5b 3e 7e c8 30 3e 71 3f 9b bd d3 85 b2 bd
       0.21423233 0.17263982 -0.0758046 -0.08716931
0000b0 4a 79 a7 3d c9 df 3b 3e 38 0e ed 3d 01 e9 1a 3e
       0.08177431 0.18347086 0.11574978 0.15127946
0000c0 b1 76 fe 3d b3 77 28 3e 53 23 43 3d 39 57 0c 3e
       0.12424982 0.16451912 0.04764111 0.13705148
0000d0 ef 9d a4 bd 1c 7a bd bc 4d a0 07 bd 45 39 99 3d
       -0.08037936 -0.023129515 -0.03311186 0.074816264
0000e0 6b 02 a6 bd f1 f5 a1 3d e3 4a d5 bc 0a 60 94 3d
       -0.0810593 0.07908238 -0.026036685 0.072448805
0000f0 b0 ff 1e 3e c2 70 34 3d 30 25 dc 3c 4f 51 ea 3d
       0.15527225 0.044052847 0.026873201 0.1144129
000100 cd 0f 39 3e 5f 72 e0 3c c3 b5 6c 3d b6 68 14 3b
       0.18072434 0.027398286 0.05779053 0.002264542
000110 ed c2 a0 3d 06 ea 3e bd 4e d7 07 be 17 fd 71 be
       0.07849679 -0.0466099 -0.13265726 -0.23631702
000120 32 dc 81 be c9 76 45 be 6b 33 85 bd 54 bf 13 bd
       -0.25363308 -0.19283594 -0.06503948 -0.036071137
000130 74 be e6 3d b9 9f 45 3e 31 cd ee 3d 2c 94 1d 3e
       0.11266795 0.1929921 0.11660231 0.15388554
000140 9e 92 66 3d 5e bb b3 bd b9 5c 8a 3d a4 25 d5 3c
       0.05629217 -0.08775972 0.06755967 0.026018925
000150 40 84 0c bb d6 46 7a 3d 1a f8 d0 bd 86 af 84 3d
       -0.0021441132 0.06110271 -0.102035716 0.06478791
000160 5b cd ec 3d db 64 be 3d 1b 13 92 3d d6 b4 98 3e
       0.11562606 0.092965804 0.0713255 0.29825467
000170 08 0a d4 3e 9e 35 b0 3d e2 c9 38 3e 4f 2c 6c 3e
       0.41413903 0.08603977 0.18045762 0.23063777
000180 56 8a 45 3e d7 89 a4 3d a9 78 7a 3d c4 b2 26 3d
       0.19291052 0.08034103 0.061150227 0.040697828
000190 da 82 66 bb 27 d1 4b 3c 32 cd 51 3d e9 7d 2f 3d
       -0.0035173208 0.0124400025 0.05122108 0.042844687
0001a0 a7 99 36 3e 0d 3b e3 bb 69 29 ac 3c 0b 05 62 3e
       0.17832051 -0.0069345296 0.02101584 0.22072236
0001b0 54 cf 1b bb 04 68 fc bd 51 85 8c bd 76 e8 dd bc
       -0.00237747 -0.12324527 -0.068613656 -0.027088385
0001c0 cc df 97 bd 07 6d eb bc 14 25 5f 3d 08 8c 5f 3e
       -0.07415733 -0.028738512 0.05447872 0.21830761
0001d0 12 83 4f 3e 6a ef c1 3d 3c 31 e8 3d 78 76 43 3e
       0.20264843 0.09469493 0.11337516 0.19088161
0001e0 89 49 6b 3e ac 82 27 3e 6c ff bb 3d 7b 06 01 3e
       0.2297727 0.16358441 0.09179577 0.12600128
0001f0 9b 35 77 bc 59 dd bf bc 0e 56 02 bd f3 36 42 bd
       -0.015088464 -0.023420976 -0.03182035 -0.047415685
000200 ef d0 29 bc b6 1d 1f be ca 1c 9a bc e8 72 6d bd
       -0.010364755 -0.15538678 -0.018812556 -0.05797091
000210 cd 5f 21 bd 5c 10 34 bd b7 2c d3 3b c3 1c e8 bd
       -0.039398003 -0.043960914 0.0064445394 -0.11333611
000220 35 3c e2 bb 6f 9f e7 3d 9a 4d fc 3d ea aa b0 3d
       -0.00690415 0.113097064 0.12319489 0.08626349
000230 26 90 6f 3d d5 da 4c bd e5 24 25 bd 4b 81 06 3d
       0.05848708 -0.050013382 -0.04031839 0.032838147
000240 6d ac 33 3d c4 56 e4 bc 2c 95 40 3d 92 13 c9 3d
       0.04386561 -0.027873404 0.04701726 0.09818186
000250 8a 98 9f 3d 71 6b 36 3d 99 6e 93 bd 48 ae f8 3c
       0.077927664 0.044536058 -0.07198829 0.030356541
000260 81 e4 46 bd df be 04 3d d6 54 81 bc ee c5 b1 bd
       -0.048557762 0.03240859 -0.015787523 -0.0868033
000270 5c eb 33 be ed 32 45 bd 39 41 fc bd 51 c6 8e bd
       -0.17570251 -0.04814427 -0.12317128 -0.069714196
000280 f3 18 df 3d 27 59 20 be 28 7e ef bd 10 8c 5e be
       0.108934306 -0.15659009 -0.11693984 -0.21733117
000290 9e 7e e6 bd a4 b3 64 3e b0 d4 41 3e 81 de 25 3e
       -0.11254619 0.22334152 0.1892879 0.1619816
0002a0 05 ee 64 bd 4f 2c c3 3d f5 00 ca bc 14 8d 7b 3d
       -0.055891056 0.095299356 -0.02465866 0.06141384
0002b0 b7 1b 93 3d 4e 14 01 be 9f c1 c7 bd c2 c0 40 bd
       0.071830206 -0.12605402 -0.09753727 -0.04705883
0002c0 95 ec 94 3c 35 32 79 3d 15 a3 31 3e 3a f9 09 3e
       0.018179217 0.060838897 0.17347367 0.13473979
0002d0 6b bc b8 3b 7c d3 c2 3d c3 e6 29 3e 11 5c 08 3e
       0.0056376955 0.09512994 0.16591935 0.1331637
0002e0 2a 6d 21 3e 97 8e 17 3e d4 82 02 3e 61 ed ac 3d
       0.15764299 0.14800487 0.1274522 0.08443714
0002f0 55 4d fe bc d4 69 8d 3c d9 68 bc bd b3 88 26 be
       -0.031042734 0.017262377 -0.091996856 -0.16263084
000300 e7 b5 dd bd c9 02 00 3d 18 53 cc bd 85 ac 76 3d
       -0.10825711 0.031252656 -0.099767864 0.06022312
000310 53 87 a7 bc 57 36 1b 3e de 32 57 bd 3a 88 48 3d
       -0.02045027 0.15157448 -0.052538745 0.04895804
000320 6f 8d d3 3c ca bb 42 be c1 f5 85 bd 2e 72 f3 3c
       0.025824277 -0.19016948 -0.065410145 0.029717531
000330 29 ef 86 3b 08 9e 72 3d 74 32 c4 3d 6c bb b1 3c
       0.0041178656 0.05923274 0.09579936 0.021695815
000340 22 4c d6 3d 2b e0 d8 3d 5f 5a 9e 3d 1b 3b 58 3e
       0.1046374 0.10589632 0.07732081 0.21116297
000350 a3 24 62 3d af 79 d0 3d 69 ba 4b 3c 0a 07 7d 3d
       0.05521072 0.10179459 0.01243458 0.06177429
000360 d4 31 5e bd ea f6 3d bb f5 bb e9 bd 3a 0c 0d be
       -0.05424674 -0.0028986284 -0.11412803 -0.13774195
000370 51 c6 13 be ca 56 d5 bd 8e fd ce bd 97 a9 e9 3d
       -0.1443112 -0.10416944 -0.101069555 0.114093
000380 b9 98 6e 3c 4c 67 37 be 11 39 8c bc ed 8d f2 3c
       0.014562779 -0.17910498 -0.017117055 0.029608691
000390 61 fe 97 bd 80 e7 52 be e9 c6 c2 bd 2c 54 91 bd
       -0.07421566 -0.20596123 -0.09510595 -0.07096133
0003a0 eb 9a a7 3b e4 6f 38 3c 7d 90 46 3d 10 7d 47 3d
       0.005114903 0.011257146 0.04847764 0.048703253
0003b0 fe 12 66 3d b2 3d e0 3d 37 f5 3a 3c 3a e3 51 3d
       0.056170456 0.109492674 0.011411003 0.05124209
0003c0 1e 76 ce 3d 82 01 73 bd fb 27 7f 3d 62 ba e9 3c
       0.10081123 -0.05932761 0.062293988 0.028531257
0003d0 f7 b2 46 3c 86 a8 00 3d 42 33 bf 3d 84 6c 23 be
       0.0121276295 0.031410716 0.093359485 -0.15959364
0003e0 aa 3f 02 be 0b 27 04 be 02 42 18 3d 9d ad 04 3e
       -0.12719598 -0.12905519 0.037172325 0.12956853
0003f0 0d 20 8b bd 51 02 7d bd c5 28 8b 3b c9 40 ac 3c
       -0.067932226 -0.061769787 0.0042468035 0.021026986

arith.constant2 f4 [64]
000000 c8 dc e4 bd 18 b4 ad 3c e8 85 cb 3c cb e8 42 3e
       -0.11174923 0.02120404 0.024844125 0.19034116
000010 66 a3 ca bd d8 59 fb 3b 29 16 d1 3c 0b ca 18 3d
       -0.09894447 0.0076706223 0.025523262 0.03730206
000020 e4 7d d8 3d 13 e4 96 3c b2 a9 78 3d 36 c1 a5 bd
       0.10570887 0.018419301 0.06070871 -0.08093493
000030 a3 c2 1c bb f9 1a 59 bc 14 b0 2d be 6b c7 26 3d
       -0.0023919723 -0.01325106 -0.169617 0.040717524
000040 7f 58 d5 bd 7f 68 06 3d d7 1e 14 3e 34 f1 29 3e
       -0.1041727 0.0328145 0.1446489 0.16595918
000050 9f 68 7d 3e 7a 35 30 bc 54 40 23 3d 1e db e8 3c
       0.24746941 -0.010754937 0.03985627 0.028424796
000060 18 ac e5 bd 3a 67 56 3d 73 87 97 bb 9f 1f 71 3d
       -0.11214465 0.05234454 -0.004624301 0.058868047
000070 69 83 f8 3c 2c 1f 56 3d ea 8f 16 3e af e7 a4 3d
       0.030336099 0.05227582 0.14703336 0.08052003
000080 06 de d5 3d 12 c1 51 3d 3f eb f8 3c 6b 59 91 3e
       0.10442738 0.051209517 0.030385612 0.28388533
000090 0b 13 d3 3d b6 72 20 3d 69 de f0 3d a6 4d 43 3e
       0.103063665 0.039171897 0.11761171 0.1907259
0000a0 80 f9 ae 3d c0 6c 4b 3d bc 0d 8b 3d 6a 32 5f 3d
       0.08543682 0.04966426 0.06789729 0.054491438
0000b0 93 b1 e8 3d e4 53 91 3d 61 87 a6 3b 64 97 35 be
       0.113619946 0.07096079 0.0050820564 -0.17733532
0000c0 fe 2d b9 3d ab 3e 24 3d cd 8a f5 bc 73 83 ae bd
       0.090419754 0.040098827 -0.029973412 -0.08521166
0000d0 7a d3 94 3a 33 8e c7 3d bf e0 70 3d 3d 6a 53 bd
       0.0011354529 0.09743919 0.058808085 -0.05161499
0000e0 2d e5 aa 3d fb 9d 96 bc 7a 9b 38 bc c9 3b 42 3d
       0.08344493 -0.018385878 -0.011267537 0.047420297
0000f0 d9 4f 5b 3e a6 b2 48 bd fd c5 23 bd 30 8b 19 3c
       0.21417178 -0.048998497 -0.03998374 0.009371564

arith.constant3 f4 [10]
000000 28 00 c7 bd 03 16 b6 bd b5 de 86 3d ce e1 cc bd
       -0.09716827 -0.08890917 0.06585447 -0.10004006
000010 f3 eb 89 3d dc ea be 3d 88 59 00 bd 54 52 4d bc
       0.06734457 0.093221396 -0.031335384 -0.012531836
000020 8a 6e eb 3d 91 d3 8b bd
       0.11495693 -0.068274625
